…
The value is the same before and after calling `init_weights` of EncoderDecoderFull  

decode_head.outc.conv.weight - torch.Size([4, 64, 1, 1]): 
The value is the same before and after calling `init_weights` of EncoderDecoderFull  

decode_head.outc.conv.bias - torch.Size([4]): 
The value is the same before and after calling `init_weights` of EncoderDecoderFull  
2023-12-04 20:48:52,098 - mmseg - INFO - EncoderDecoderFull(
  (decode_head): MyUNet(
    input_transform=None, ignore_index=255, align_corners=False
    (loss_decode): ModuleList(
      (0): FocalLoss()
      (1): DiceLoss()
    )
    (conv_seg): Conv2d(64, 2, kernel_size=(1, 1), stride=(1, 1))
    (dropout): Dropout2d(p=0.1, inplace=False)
    (inc): DoubleConv(
      (double_conv): Sequential(
        (0): Conv2d(3, 64, kernel_size=(3, 3), stride=(1, 1), padding=(1, 1), bias=False)
        (1): BatchNorm2d(64, eps=1e-05, momentum=0.1, affine=True, track_running_stats=True)
        (2): ReLU(inplace=True)
        (3): Conv2d(64, 64, kernel_size=(3, 3), stride=(1, 1), padding=(1, 1), bias=False)
        (4): BatchNorm2d(64, eps=1e-05, momentum=0.1, affine=True, track_running_stats=True)
        (5): ReLU(inplace=True)
      )
    )
    (se1): SeBlock(
      (avg_pool): AdaptiveAvgPool2d(output_size=1)
      (fc): Sequential(
        (0): Linear(in_features=64, out_features=4, bias=False)
        (1): ReLU(inplace=True)
        (2): Linear(in_features=4, out_features=64, bias=False)
        (3): Sigmoid()
      )
    )
    (down1): Down(
      (maxpool_conv): Sequential(
        (0): MaxPool2d(kernel_size=2, stride=2, padding=0, dilation=1, ceil_mode=False)
        (1): DoubleConv(
          (double_conv): Sequential(
            (0): Conv2d(64, 128, kernel_size=(3, 3), stride=(1, 1), padding=(1, 1), bias=False)
            (1): BatchNorm2d(128, eps=1e-05, momentum=0.1, affine=True, track_running_stats=True)
            (2): ReLU(inplace=True)
            (3): Conv2d(128, 128, kernel_size=(3, 3), stride=(1, 1), padding=(1, 1), bias=False)
            (4): BatchNorm2d(128, eps=1e-05, momentum=0.1, affine=True, track_running_stats=True)
            (5): ReLU(inplace=True)
          )
        )
      )
    )
    (se2): SeBlock(
      (avg_pool): AdaptiveAvgPool2d(output_size=1)
      (fc): Sequential(
        (0): Linear(in_features=128, out_features=8, bias=False)
        (1): ReLU(inplace=True)
        (2): Linear(in_features=8, out_features=128, bias=False)
        (3): Sigmoid()
      )
    )
    (down2): Down(
      (maxpool_conv): Sequential(
        (0): MaxPool2d(kernel_size=2, stride=2, padding=0, dilation=1, ceil_mode=False)
        (1): DoubleConv(
          (double_conv): Sequential(
            (0): Conv2d(128, 256, kernel_size=(3, 3), stride=(1, 1), padding=(1, 1), bias=False)
            (1): BatchNorm2d(256, eps=1e-05, momentum=0.1, affine=True, track_running_stats=True)
            (2): ReLU(inplace=True)
            (3): Conv2d(256, 256, kernel_size=(3, 3), stride=(1, 1), padding=(1, 1), bias=False)
            (4): BatchNorm2d(256, eps=1e-05, momentum=0.1, affine=True, track_running_stats=True)
            (5): ReLU(inplace=True)
          )
        )
      )
    )
    (se3): SeBlock(
      (avg_pool): AdaptiveAvgPool2d(output_size=1)
      (fc): Sequential(
        (0): Linear(in_features=256, out_features=16, bias=False)
        (1): ReLU(inplace=True)
        (2): Linear(in_features=16, out_features=256, bias=False)
        (3): Sigmoid()
      )
    )
    (down3): Down(
      (maxpool_conv): Sequential(
        (0): MaxPool2d(kernel_size=2, stride=2, padding=0, dilation=1, ceil_mode=False)
        (1): DoubleConv(
          (double_conv): Sequential(
            (0): Conv2d(256, 512, kernel_size=(3, 3), stride=(1, 1), padding=(1, 1), bias=False)
            (1): BatchNorm2d(512, eps=1e-05, momentum=0.1, affine=True, track_running_stats=True)
            (2): ReLU(inplace=True)
            (3): Conv2d(512, 512, kernel_size=(3, 3), stride=(1, 1), padding=(1, 1), bias=False)
            (4): BatchNorm2d(512, eps=1e-05, momentum=0.1, affine=True, track_running_stats=True)
            (5): ReLU(inplace=True)
          )
        )
      )
    )
    (se4): SeBlock(
      (avg_pool): AdaptiveAvgPool2d(output_size=1)
      (fc): Sequential(
        (0): Linear(in_features=512, out_features=32, bias=False)
        (1): ReLU(inplace=True)
        (2): Linear(in_features=32, out_features=512, bias=False)
        (3): Sigmoid()
      )
    )
    (down4): Down(
      (maxpool_conv): Sequential(
        (0): MaxPool2d(kernel_size=2, stride=2, padding=0, dilation=1, ceil_mode=False)
        (1): DoubleConv(
          (double_conv): Sequential(
            (0): Conv2d(512, 512, kernel_size=(3, 3), stride=(1, 1), padding=(1, 1), bias=False)
            (1): BatchNorm2d(512, eps=1e-05, momentum=0.1, affine=True, track_running_stats=True)
            (2): ReLU(inplace=True)
            (3): Conv2d(512, 512, kernel_size=(3, 3), stride=(1, 1), padding=(1, 1), bias=False)
            (4): BatchNorm2d(512, eps=1e-05, momentum=0.1, affine=True, track_running_stats=True)
            (5): ReLU(inplace=True)
          )
        )
      )
    )
    (up1): Up(
      (up): Upsample(scale_factor=2.0, mode=bilinear)
      (conv): DoubleConv(
        (double_conv): Sequential(
          (0): Conv2d(1024, 512, kernel_size=(3, 3), stride=(1, 1), padding=(1, 1), bias=False)
          (1): BatchNorm2d(512, eps=1e-05, momentum=0.1, affine=True, track_running_stats=True)
          (2): ReLU(inplace=True)
          (3): Conv2d(512, 256, kernel_size=(3, 3), stride=(1, 1), padding=(1, 1), bias=False)
          (4): BatchNorm2d(256, eps=1e-05, momentum=0.1, affine=True, track_running_stats=True)
          (5): ReLU(inplace=True)
        )
      )
      (ca): CoordAtt(
        (pool_h): AdaptiveAvgPool2d(output_size=(None, 1))
        (pool_w): AdaptiveAvgPool2d(output_size=(1, None))
        (conv1): Conv2d(1024, 256, kernel_size=(1, 1), stride=(1, 1))
        (bn1): BatchNorm2d(256, eps=1e-05, momentum=0.1, affine=True, track_running_stats=True)
        (act): h_swish(
          (sigmoid): h_sigmoid(
            (relu): ReLU6(inplace=True)
          )
        )
        (conv_h): Conv2d(256, 1024, kernel_size=(1, 1), stride=(1, 1))
        (conv_w): Conv2d(256, 1024, kernel_size=(1, 1), stride=(1, 1))
      )
    )
    (up2): Up(
      (up): Upsample(scale_factor=2.0, mode=bilinear)
      (conv): DoubleConv(
        (double_conv): Sequential(
          (0): Conv2d(512, 256, kernel_size=(3, 3), stride=(1, 1), padding=(1, 1), bias=False)
          (1): BatchNorm2d(256, eps=1e-05, momentum=0.1, affine=True, track_running_stats=True)
          (2): ReLU(inplace=True)
          (3): Conv2d(256, 128, kernel_size=(3, 3), stride=(1, 1), padding=(1, 1), bias=False)
          (4): BatchNorm2d(128, eps=1e-05, momentum=0.1, affine=True, track_running_stats=True)
          (5): ReLU(inplace=True)
        )
      )
      (ca): CoordAtt(
        (pool_h): AdaptiveAvgPool2d(output_size=(None, 1))
        (pool_w): AdaptiveAvgPool2d(output_size=(1, None))
        (conv1): Conv2d(512, 128, kernel_size=(1, 1), stride=(1, 1))
        (bn1): BatchNorm2d(128, eps=1e-05, momentum=0.1, affine=True, track_running_stats=True)
        (act): h_swish(
          (sigmoid): h_sigmoid(
            (relu): ReLU6(inplace=True)
          )
        )
        (conv_h): Conv2d(128, 512, kernel_size=(1, 1), stride=(1, 1))
        (conv_w): Conv2d(128, 512, kernel_size=(1, 1), stride=(1, 1))
      )
    )
    (up3): Up(
      (up): Upsample(scale_factor=2.0, mode=bilinear)
      (conv): DoubleConv(
        (double_conv): Sequential(
          (0): Conv2d(256, 128, kernel_size=(3, 3), stride=(1, 1), padding=(1, 1), bias=False)
          (1): BatchNorm2d(128, eps=1e-05, momentum=0.1, affine=True, track_running_stats=True)
          (2): ReLU(inplace=True)
          (3): Conv2d(128, 64, kernel_size=(3, 3), stride=(1, 1), padding=(1, 1), bias=False)
          (4): BatchNorm2d(64, eps=1e-05, momentum=0.1, affine=True, track_running_stats=True)
          (5): ReLU(inplace=True)
        )
      )
      (ca): CoordAtt(
        (pool_h): AdaptiveAvgPool2d(output_size=(None, 1))
        (pool_w): AdaptiveAvgPool2d(output_size=(1, None))
        (conv1): Conv2d(256, 64, kernel_size=(1, 1), stride=(1, 1))
        (bn1): BatchNorm2d(64, eps=1e-05, momentum=0.1, affine=True, track_running_stats=True)
        (act): h_swish(
          (sigmoid): h_sigmoid(
            (relu): ReLU6(inplace=True)
          )
        )
        (conv_h): Conv2d(64, 256, kernel_size=(1, 1), stride=(1, 1))
        (conv_w): Conv2d(64, 256, kernel_size=(1, 1), stride=(1, 1))
      )
    )
    (up4): Up(
      (up): Upsample(scale_factor=2.0, mode=bilinear)
      (conv): DoubleConv(
        (double_conv): Sequential(
          (0): Conv2d(128, 64, kernel_size=(3, 3), stride=(1, 1), padding=(1, 1), bias=False)
          (1): BatchNorm2d(64, eps=1e-05, momentum=0.1, affine=True, track_running_stats=True)
          (2): ReLU(inplace=True)
          (3): Conv2d(64, 64, kernel_size=(3, 3), stride=(1, 1), padding=(1, 1), bias=False)
          (4): BatchNorm2d(64, eps=1e-05, momentum=0.1, affine=True, track_running_stats=True)
          (5): ReLU(inplace=True)
        )
      )
      (ca): CoordAtt(
        (pool_h): AdaptiveAvgPool2d(output_size=(None, 1))
        (pool_w): AdaptiveAvgPool2d(output_size=(1, None))
        (conv1): Conv2d(128, 32, kernel_size=(1, 1), stride=(1, 1))
        (bn1): BatchNorm2d(32, eps=1e-05, momentum=0.1, affine=True, track_running_stats=True)
        (act): h_swish(
          (sigmoid): h_sigmoid(
            (relu): ReLU6(inplace=True)
          )
        )
        (conv_h): Conv2d(32, 128, kernel_size=(1, 1), stride=(1, 1))
        (conv_w): Conv2d(32, 128, kernel_size=(1, 1), stride=(1, 1))
      )
    )
    (outc): OutConv(
      (conv): Conv2d(64, 4, kernel_size=(1, 1), stride=(1, 1))
    )
  )
  init_cfg={'type': 'Normal', 'std': 0.01, 'override': {'name': 'conv_seg'}}
)
2023-12-04 20:48:52,133 - mmseg - INFO - Loaded 474 images
2023-12-04 20:48:52,720 - mmseg - INFO - Loaded 105 images
2023-12-04 20:48:52,721 - mmseg - INFO - Start running, host: whj@DESKTOP-OUFR2BR, work_dir: D:\for_study\code_source\code\card\work_dirs\myUnet
2023-12-04 20:48:52,721 - mmseg - INFO - Hooks will be executed in the following order:
…
