…
The value is the same before and after calling `init_weights` of EncoderDecoder  

decode_head.up4.conv.conv.3.bias - torch.Size([64]): 
The value is the same before and after calling `init_weights` of EncoderDecoder  

decode_head.up4.conv.conv.4.weight - torch.Size([64]): 
The value is the same before and after calling `init_weights` of EncoderDecoder  

decode_head.up4.conv.conv.4.bias - torch.Size([64]): 
The value is the same before and after calling `init_weights` of EncoderDecoder  
2023-10-31 20:28:50,757 - mmseg - INFO - EncoderDecoder(
  (backbone): UnetBackbone(
    (inc): InConv(
      (conv): DoubleConv(
        (conv): Sequential(
          (0): Conv2d(3, 64, kernel_size=(3, 3), stride=(1, 1), padding=(1, 1))
          (1): SyncBatchNorm(64, eps=1e-05, momentum=0.1, affine=True, track_running_stats=True)
          (2): ReLU(inplace=True)
          (3): Conv2d(64, 64, kernel_size=(3, 3), stride=(1, 1), padding=(1, 1))
          (4): SyncBatchNorm(64, eps=1e-05, momentum=0.1, affine=True, track_running_stats=True)
          (5): ReLU(inplace=True)
        )
      )
    )
    (down1): Down(
      (down_conv): Sequential(
        (0): MaxPool2d(kernel_size=2, stride=2, padding=0, dilation=1, ceil_mode=False)
        (1): DoubleConv(
          (conv): Sequential(
            (0): Conv2d(64, 128, kernel_size=(3, 3), stride=(1, 1), padding=(1, 1))
            (1): SyncBatchNorm(128, eps=1e-05, momentum=0.1, affine=True, track_running_stats=True)
            (2): ReLU(inplace=True)
            (3): Conv2d(128, 128, kernel_size=(3, 3), stride=(1, 1), padding=(1, 1))
            (4): SyncBatchNorm(128, eps=1e-05, momentum=0.1, affine=True, track_running_stats=True)
            (5): ReLU(inplace=True)
          )
        )
      )
    )
    (down2): Down(
      (down_conv): Sequential(
        (0): MaxPool2d(kernel_size=2, stride=2, padding=0, dilation=1, ceil_mode=False)
        (1): DoubleConv(
          (conv): Sequential(
            (0): Conv2d(128, 256, kernel_size=(3, 3), stride=(1, 1), padding=(1, 1))
            (1): SyncBatchNorm(256, eps=1e-05, momentum=0.1, affine=True, track_running_stats=True)
            (2): ReLU(inplace=True)
            (3): Conv2d(256, 256, kernel_size=(3, 3), stride=(1, 1), padding=(1, 1))
            (4): SyncBatchNorm(256, eps=1e-05, momentum=0.1, affine=True, track_running_stats=True)
            (5): ReLU(inplace=True)
          )
        )
      )
    )
    (down3): Down(
      (down_conv): Sequential(
        (0): MaxPool2d(kernel_size=2, stride=2, padding=0, dilation=1, ceil_mode=False)
        (1): DoubleConv(
          (conv): Sequential(
            (0): Conv2d(256, 512, kernel_size=(3, 3), stride=(1, 1), padding=(1, 1))
            (1): SyncBatchNorm(512, eps=1e-05, momentum=0.1, affine=True, track_running_stats=True)
            (2): ReLU(inplace=True)
            (3): Conv2d(512, 512, kernel_size=(3, 3), stride=(1, 1), padding=(1, 1))
            (4): SyncBatchNorm(512, eps=1e-05, momentum=0.1, affine=True, track_running_stats=True)
            (5): ReLU(inplace=True)
          )
        )
      )
    )
    (down4): Down(
      (down_conv): Sequential(
        (0): MaxPool2d(kernel_size=2, stride=2, padding=0, dilation=1, ceil_mode=False)
        (1): DoubleConv(
          (conv): Sequential(
            (0): Conv2d(512, 512, kernel_size=(3, 3), stride=(1, 1), padding=(1, 1))
            (1): SyncBatchNorm(512, eps=1e-05, momentum=0.1, affine=True, track_running_stats=True)
            (2): ReLU(inplace=True)
            (3): Conv2d(512, 512, kernel_size=(3, 3), stride=(1, 1), padding=(1, 1))
            (4): SyncBatchNorm(512, eps=1e-05, momentum=0.1, affine=True, track_running_stats=True)
            (5): ReLU(inplace=True)
          )
        )
      )
    )
    (context_layer1_1): KernelSelectAttention(
      (convs): ModuleList(
        (0): Sequential(
          (0): Conv2d(64, 64, kernel_size=(3, 3), stride=(1, 1), padding=(1, 1))
          (1): SyncBatchNorm(64, eps=1e-05, momentum=0.1, affine=True, track_running_stats=True)
          (2): ReLU()
        )
        (1): Sequential(
          (0): Conv2d(64, 64, kernel_size=(5, 5), stride=(1, 1), padding=(2, 2))
          (1): SyncBatchNorm(64, eps=1e-05, momentum=0.1, affine=True, track_running_stats=True)
          (2): ReLU()
        )
        (2): Sequential(
          (0): Conv2d(64, 64, kernel_size=(7, 7), stride=(1, 1), padding=(3, 3))
          (1): SyncBatchNorm(64, eps=1e-05, momentum=0.1, affine=True, track_running_stats=True)
          (2): ReLU()
        )
        (3): Sequential(
          (0): Conv2d(64, 64, kernel_size=(9, 9), stride=(1, 1), padding=(4, 4))
          (1): SyncBatchNorm(64, eps=1e-05, momentum=0.1, affine=True, track_running_stats=True)
          (2): ReLU()
        )
      )
      (fc): Linear(in_features=64, out_features=32, bias=True)
      (fcs): ModuleList(
        (0): Linear(in_features=32, out_features=64, bias=True)
        (1): Linear(in_features=32, out_features=64, bias=True)
        (2): Linear(in_features=32, out_features=64, bias=True)
        (3): Linear(in_features=32, out_features=64, bias=True)
      )
      (softmax): Softmax(dim=0)
    )
    (context_layer2_1): KernelSelectAttention(
      (convs): ModuleList(
        (0): Sequential(
          (0): Conv2d(128, 128, kernel_size=(3, 3), stride=(1, 1), padding=(1, 1))
          (1): SyncBatchNorm(128, eps=1e-05, momentum=0.1, affine=True, track_running_stats=True)
          (2): ReLU()
        )
        (1): Sequential(
          (0): Conv2d(128, 128, kernel_size=(5, 5), stride=(1, 1), padding=(2, 2))
          (1): SyncBatchNorm(128, eps=1e-05, momentum=0.1, affine=True, track_running_stats=True)
          (2): ReLU()
        )
        (2): Sequential(
          (0): Conv2d(128, 128, kernel_size=(7, 7), stride=(1, 1), padding=(3, 3))
          (1): SyncBatchNorm(128, eps=1e-05, momentum=0.1, affine=True, track_running_stats=True)
          (2): ReLU()
        )
        (3): Sequential(
          (0): Conv2d(128, 128, kernel_size=(9, 9), stride=(1, 1), padding=(4, 4))
          (1): SyncBatchNorm(128, eps=1e-05, momentum=0.1, affine=True, track_running_stats=True)
          (2): ReLU()
        )
      )
      (fc): Linear(in_features=128, out_features=32, bias=True)
      (fcs): ModuleList(
        (0): Linear(in_features=32, out_features=128, bias=True)
        (1): Linear(in_features=32, out_features=128, bias=True)
        (2): Linear(in_features=32, out_features=128, bias=True)
        (3): Linear(in_features=32, out_features=128, bias=True)
      )
      (softmax): Softmax(dim=0)
    )
    (context_layer3_1): KernelSelectAttention(
      (convs): ModuleList(
        (0): Sequential(
          (0): Conv2d(256, 256, kernel_size=(3, 3), stride=(1, 1), padding=(1, 1))
          (1): SyncBatchNorm(256, eps=1e-05, momentum=0.1, affine=True, track_running_stats=True)
          (2): ReLU()
        )
        (1): Sequential(
          (0): Conv2d(256, 256, kernel_size=(5, 5), stride=(1, 1), padding=(2, 2))
          (1): SyncBatchNorm(256, eps=1e-05, momentum=0.1, affine=True, track_running_stats=True)
          (2): ReLU()
        )
        (2): Sequential(
          (0): Conv2d(256, 256, kernel_size=(7, 7), stride=(1, 1), padding=(3, 3))
          (1): SyncBatchNorm(256, eps=1e-05, momentum=0.1, affine=True, track_running_stats=True)
          (2): ReLU()
        )
        (3): Sequential(
          (0): Conv2d(256, 256, kernel_size=(9, 9), stride=(1, 1), padding=(4, 4))
          (1): SyncBatchNorm(256, eps=1e-05, momentum=0.1, affine=True, track_running_stats=True)
          (2): ReLU()
        )
      )
      (fc): Linear(in_features=256, out_features=32, bias=True)
      (fcs): ModuleList(
        (0): Linear(in_features=32, out_features=256, bias=True)
        (1): Linear(in_features=32, out_features=256, bias=True)
        (2): Linear(in_features=32, out_features=256, bias=True)
        (3): Linear(in_features=32, out_features=256, bias=True)
      )
      (softmax): Softmax(dim=0)
    )
    (aspp4): TransformerBlock(
      (linear): Linear(in_features=512, out_features=512, bias=True)
      (tr): Sequential(
        (0): TransformerLayer(
          (q): Linear(in_features=512, out_features=512, bias=False)
          (k): Linear(in_features=512, out_features=512, bias=False)
          (v): Linear(in_features=512, out_features=512, bias=False)
          (ma): MultiheadAttention(
            (out_proj): NonDynamicallyQuantizableLinear(in_features=512, out_features=512, bias=True)
          )
          (fc1): Linear(in_features=512, out_features=512, bias=False)
          (fc2): Linear(in_features=512, out_features=512, bias=False)
        )
        (1): TransformerLayer(
          (q): Linear(in_features=512, out_features=512, bias=False)
          (k): Linear(in_features=512, out_features=512, bias=False)
          (v): Linear(in_features=512, out_features=512, bias=False)
          (ma): MultiheadAttention(
            (out_proj): NonDynamicallyQuantizableLinear(in_features=512, out_features=512, bias=True)
          )
          (fc1): Linear(in_features=512, out_features=512, bias=False)
          (fc2): Linear(in_features=512, out_features=512, bias=False)
        )
        (2): TransformerLayer(
          (q): Linear(in_features=512, out_features=512, bias=False)
          (k): Linear(in_features=512, out_features=512, bias=False)
          (v): Linear(in_features=512, out_features=512, bias=False)
          (ma): MultiheadAttention(
            (out_proj): NonDynamicallyQuantizableLinear(in_features=512, out_features=512, bias=True)
          )
          (fc1): Linear(in_features=512, out_features=512, bias=False)
          (fc2): Linear(in_features=512, out_features=512, bias=False)
        )
        (3): TransformerLayer(
          (q): Linear(in_features=512, out_features=512, bias=False)
          (k): Linear(in_features=512, out_features=512, bias=False)
          (v): Linear(in_features=512, out_features=512, bias=False)
          (ma): MultiheadAttention(
            (out_proj): NonDynamicallyQuantizableLinear(in_features=512, out_features=512, bias=True)
          )
          (fc1): Linear(in_features=512, out_features=512, bias=False)
          (fc2): Linear(in_features=512, out_features=512, bias=False)
        )
      )
    )
    (aspp5): TransformerBlock(
      (linear): Linear(in_features=512, out_features=512, bias=True)
      (tr): Sequential(
        (0): TransformerLayer(
          (q): Linear(in_features=512, out_features=512, bias=False)
          (k): Linear(in_features=512, out_features=512, bias=False)
          (v): Linear(in_features=512, out_features=512, bias=False)
          (ma): MultiheadAttention(
            (out_proj): NonDynamicallyQuantizableLinear(in_features=512, out_features=512, bias=True)
          )
          (fc1): Linear(in_features=512, out_features=512, bias=False)
          (fc2): Linear(in_features=512, out_features=512, bias=False)
        )
        (1): TransformerLayer(
          (q): Linear(in_features=512, out_features=512, bias=False)
          (k): Linear(in_features=512, out_features=512, bias=False)
          (v): Linear(in_features=512, out_features=512, bias=False)
          (ma): MultiheadAttention(
            (out_proj): NonDynamicallyQuantizableLinear(in_features=512, out_features=512, bias=True)
          )
          (fc1): Linear(in_features=512, out_features=512, bias=False)
          (fc2): Linear(in_features=512, out_features=512, bias=False)
        )
        (2): TransformerLayer(
          (q): Linear(in_features=512, out_features=512, bias=False)
          (k): Linear(in_features=512, out_features=512, bias=False)
          (v): Linear(in_features=512, out_features=512, bias=False)
          (ma): MultiheadAttention(
            (out_proj): NonDynamicallyQuantizableLinear(in_features=512, out_features=512, bias=True)
          )
          (fc1): Linear(in_features=512, out_features=512, bias=False)
          (fc2): Linear(in_features=512, out_features=512, bias=False)
        )
        (3): TransformerLayer(
          (q): Linear(in_features=512, out_features=512, bias=False)
          (k): Linear(in_features=512, out_features=512, bias=False)
          (v): Linear(in_features=512, out_features=512, bias=False)
          (ma): MultiheadAttention(
            (out_proj): NonDynamicallyQuantizableLinear(in_features=512, out_features=512, bias=True)
          )
          (fc1): Linear(in_features=512, out_features=512, bias=False)
          (fc2): Linear(in_features=512, out_features=512, bias=False)
        )
      )
    )
  )
  (decode_head): UnetHead(
    input_transform=None, ignore_index=255, align_corners=False
    (loss_decode): ModuleList(
      (0): FocalLoss()
      (1): DiceLoss()
    )
    (conv_seg): Conv2d(64, 4, kernel_size=(1, 1), stride=(1, 1))
    (dropout): Dropout2d(p=0.1, inplace=False)
    (up1): Up(
      (up): Upsample(scale_factor=2.0, mode=bilinear)
      (conv): DoubleConv(
        (conv): Sequential(
          (0): Conv2d(1024, 256, kernel_size=(3, 3), stride=(1, 1), padding=(1, 1))
          (1): SyncBatchNorm(256, eps=1e-05, momentum=0.1, affine=True, track_running_stats=True)
          (2): ReLU(inplace=True)
          (3): Conv2d(256, 256, kernel_size=(3, 3), stride=(1, 1), padding=(1, 1))
          (4): SyncBatchNorm(256, eps=1e-05, momentum=0.1, affine=True, track_running_stats=True)
          (5): ReLU(inplace=True)
        )
      )
    )
    (up2): Up(
      (up): Upsample(scale_factor=2.0, mode=bilinear)
      (conv): DoubleConv(
        (conv): Sequential(
          (0): Conv2d(512, 128, kernel_size=(3, 3), stride=(1, 1), padding=(1, 1))
          (1): SyncBatchNorm(128, eps=1e-05, momentum=0.1, affine=True, track_running_stats=True)
          (2): ReLU(inplace=True)
          (3): Conv2d(128, 128, kernel_size=(3, 3), stride=(1, 1), padding=(1, 1))
          (4): SyncBatchNorm(128, eps=1e-05, momentum=0.1, affine=True, track_running_stats=True)
          (5): ReLU(inplace=True)
        )
      )
    )
    (up3): Up(
      (up): Upsample(scale_factor=2.0, mode=bilinear)
      (conv): DoubleConv(
        (conv): Sequential(
          (0): Conv2d(256, 64, kernel_size=(3, 3), stride=(1, 1), padding=(1, 1))
          (1): SyncBatchNorm(64, eps=1e-05, momentum=0.1, affine=True, track_running_stats=True)
          (2): ReLU(inplace=True)
          (3): Conv2d(64, 64, kernel_size=(3, 3), stride=(1, 1), padding=(1, 1))
          (4): SyncBatchNorm(64, eps=1e-05, momentum=0.1, affine=True, track_running_stats=True)
          (5): ReLU(inplace=True)
        )
      )
    )
    (up4): Up(
      (up): Upsample(scale_factor=2.0, mode=bilinear)
      (conv): DoubleConv(
        (conv): Sequential(
          (0): Conv2d(128, 64, kernel_size=(3, 3), stride=(1, 1), padding=(1, 1))
          (1): SyncBatchNorm(64, eps=1e-05, momentum=0.1, affine=True, track_running_stats=True)
          (2): ReLU(inplace=True)
          (3): Conv2d(64, 64, kernel_size=(3, 3), stride=(1, 1), padding=(1, 1))
          (4): SyncBatchNorm(64, eps=1e-05, momentum=0.1, affine=True, track_running_stats=True)
          (5): ReLU(inplace=True)
        )
      )
    )
  )
  init_cfg={'type': 'Normal', 'std': 0.01, 'override': {'name': 'conv_seg'}}
)
2023-10-31 20:28:50,764 - mmseg - INFO - Loaded 308 images
2023-10-31 20:28:56,556 - mmseg - INFO - Loaded 78 images
…
