…
The value is the same before and after calling `init_weights` of EncoderDecoderFull  

decode_head.block_3.27.m.2.bn.weight - torch.Size([768]): 
The value is the same before and after calling `init_weights` of EncoderDecoderFull  

decode_head.block_3.27.m.2.bn.bias - torch.Size([768]): 
The value is the same before and after calling `init_weights` of EncoderDecoderFull  
2023-11-26 21:41:47,798 - mmseg - INFO - EncoderDecoderFull(
  (decode_head): LevitUnet(
    input_transform=None, ignore_index=255, align_corners=False
    (loss_decode): ModuleList(
      (0): FocalLoss()
      (1): DiceLoss()
    )
    (conv_seg): Conv2d(64, 2, kernel_size=(1, 1), stride=(1, 1))
    (dropout): Dropout2d(p=0.1, inplace=False)
    (conv_init): Sequential(
      (0): Conv2d_BN(
        (c): Conv2d(3, 48, kernel_size=(3, 3), stride=(1, 1), padding=(1, 1), bias=False)
        (bn): BatchNorm2d(48, eps=1e-05, momentum=0.1, affine=True, track_running_stats=True)
      )
      (1): Hardswish()
    )
    (cnn_b1): Sequential(
      (0): Conv2d_BN(
        (c): Conv2d(48, 48, kernel_size=(3, 3), stride=(2, 2), padding=(1, 1), bias=False)
        (bn): BatchNorm2d(48, eps=1e-05, momentum=0.1, affine=True, track_running_stats=True)
      )
      (1): Hardswish()
    )
    (atrous_conv1): Sequential(
      (0): Conv2d_BN(
        (c): Conv2d(48, 96, kernel_size=(3, 3), stride=(1, 1), padding=(2, 2), dilation=(2, 2), bias=False)
        (bn): BatchNorm2d(96, eps=1e-05, momentum=0.1, affine=True, track_running_stats=True)
      )
      (1): Hardswish()
    )
    (combine1): Sequential(
      (0): Conv2d_BN(
        (c): Conv2d(96, 96, kernel_size=(3, 3), stride=(2, 2), padding=(1, 1), bias=False)
        (bn): BatchNorm2d(96, eps=1e-05, momentum=0.1, affine=True, track_running_stats=True)
      )
      (1): Hardswish()
    )
    (atrous_conv2): Sequential(
      (0): Conv2d_BN(
        (c): Conv2d(96, 192, kernel_size=(3, 3), stride=(1, 1), padding=(3, 3), dilation=(3, 3), bias=False)
        (bn): BatchNorm2d(192, eps=1e-05, momentum=0.1, affine=True, track_running_stats=True)
      )
      (1): Hardswish()
    )
    (combine2): Sequential(
      (0): Conv2d_BN(
        (c): Conv2d(192, 192, kernel_size=(3, 3), stride=(2, 2), padding=(1, 1), bias=False)
        (bn): BatchNorm2d(192, eps=1e-05, momentum=0.1, affine=True, track_running_stats=True)
      )
      (1): Hardswish()
      (2): Conv2d_BN(
        (c): Conv2d(192, 192, kernel_size=(3, 3), stride=(2, 2), padding=(1, 1), bias=False)
        (bn): BatchNorm2d(192, eps=1e-05, momentum=0.1, affine=True, track_running_stats=True)
      )
      (3): Hardswish()
    )
    (atrous_conv3): Sequential(
      (0): Conv2d_BN(
        (c): Conv2d(192, 384, kernel_size=(3, 3), stride=(1, 1), padding=(4, 4), dilation=(4, 4), bias=False)
        (bn): BatchNorm2d(384, eps=1e-05, momentum=0.1, affine=True, track_running_stats=True)
      )
      (1): Hardswish()
    )
    (combine3): Sequential(
      (0): Conv2d_BN(
        (c): Conv2d(384, 384, kernel_size=(3, 3), stride=(2, 2), padding=(1, 1), bias=False)
        (bn): BatchNorm2d(384, eps=1e-05, momentum=0.1, affine=True, track_running_stats=True)
      )
      (1): Hardswish()
      (2): Conv2d_BN(
        (c): Conv2d(384, 384, kernel_size=(3, 3), stride=(2, 2), padding=(1, 1), bias=False)
        (bn): BatchNorm2d(384, eps=1e-05, momentum=0.1, affine=True, track_running_stats=True)
      )
      (3): Hardswish()
      (4): Conv2d_BN(
        (c): Conv2d(384, 384, kernel_size=(3, 3), stride=(2, 2), padding=(1, 1), bias=False)
        (bn): BatchNorm2d(384, eps=1e-05, momentum=0.1, affine=True, track_running_stats=True)
      )
      (5): Hardswish()
    )
    (cnn_b2): Sequential(
      (0): Conv2d_BN(
        (c): Conv2d(48, 96, kernel_size=(3, 3), stride=(2, 2), padding=(1, 1), bias=False)
        (bn): BatchNorm2d(96, eps=1e-05, momentum=0.1, affine=True, track_running_stats=True)
      )
      (1): Hardswish()
    )
    (cnn_b3): Sequential(
      (0): Conv2d_BN(
        (c): Conv2d(96, 192, kernel_size=(3, 3), stride=(2, 2), padding=(1, 1), bias=False)
        (bn): BatchNorm2d(192, eps=1e-05, momentum=0.1, affine=True, track_running_stats=True)
      )
      (1): Hardswish()
    )
    (cnn_b4): Sequential(
      (0): Conv2d_BN(
        (c): Conv2d(192, 384, kernel_size=(3, 3), stride=(2, 2), padding=(1, 1), bias=False)
        (bn): BatchNorm2d(384, eps=1e-05, momentum=0.1, affine=True, track_running_stats=True)
      )
    )
    (decoderBlock_1): DecoderBlock(
      (conv1): Conv2dReLU(
        (0): Conv2d(2048, 512, kernel_size=(3, 3), stride=(1, 1), padding=(1, 1), bias=False)
        (1): BatchNorm2d(512, eps=1e-05, momentum=0.1, affine=True, track_running_stats=True)
        (2): ReLU(inplace=True)
      )
      (conv2): Conv2dReLU(
        (0): Conv2d(512, 512, kernel_size=(3, 3), stride=(1, 1), padding=(1, 1), bias=False)
        (1): BatchNorm2d(512, eps=1e-05, momentum=0.1, affine=True, track_running_stats=True)
        (2): ReLU(inplace=True)
      )
      (up): UpsamplingBilinear2d(scale_factor=2.0, mode=bilinear)
    )
    (decoderBlock_2): DecoderBlock(
      (conv1): Conv2dReLU(
        (0): Conv2d(704, 256, kernel_size=(3, 3), stride=(1, 1), padding=(1, 1), bias=False)
        (1): BatchNorm2d(256, eps=1e-05, momentum=0.1, affine=True, track_running_stats=True)
        (2): ReLU(inplace=True)
      )
      (conv2): Conv2dReLU(
        (0): Conv2d(256, 256, kernel_size=(3, 3), stride=(1, 1), padding=(1, 1), bias=False)
        (1): BatchNorm2d(256, eps=1e-05, momentum=0.1, affine=True, track_running_stats=True)
        (2): ReLU(inplace=True)
      )
      (up): UpsamplingBilinear2d(scale_factor=2.0, mode=bilinear)
    )
    (decoderBlock_3): DecoderBlock(
      (conv1): Conv2dReLU(
        (0): Conv2d(352, 128, kernel_size=(3, 3), stride=(1, 1), padding=(1, 1), bias=False)
        (1): BatchNorm2d(128, eps=1e-05, momentum=0.1, affine=True, track_running_stats=True)
        (2): ReLU(inplace=True)
      )
      (conv2): Conv2dReLU(
        (0): Conv2d(128, 128, kernel_size=(3, 3), stride=(1, 1), padding=(1, 1), bias=False)
        (1): BatchNorm2d(128, eps=1e-05, momentum=0.1, affine=True, track_running_stats=True)
        (2): ReLU(inplace=True)
      )
      (up): UpsamplingBilinear2d(scale_factor=2.0, mode=bilinear)
    )
    (decoderBlock_4): DecoderBlock(
      (conv1): Conv2dReLU(
        (0): Conv2d(176, 64, kernel_size=(3, 3), stride=(1, 1), padding=(1, 1), bias=False)
        (1): BatchNorm2d(64, eps=1e-05, momentum=0.1, affine=True, track_running_stats=True)
        (2): ReLU(inplace=True)
      )
      (conv2): Conv2dReLU(
        (0): Conv2d(64, 64, kernel_size=(3, 3), stride=(1, 1), padding=(1, 1), bias=False)
        (1): BatchNorm2d(64, eps=1e-05, momentum=0.1, affine=True, track_running_stats=True)
        (2): ReLU(inplace=True)
      )
      (up): UpsamplingBilinear2d(scale_factor=2.0, mode=bilinear)
    )
    (segmentation_head): SegmentationHead(
      (0): Conv2d(112, 4, kernel_size=(3, 3), stride=(1, 1), padding=(1, 1))
      (1): UpsamplingBilinear2d(scale_factor=2.0, mode=bilinear)
    )
    (block_1): Sequential(
      (0): Residual(
        (m): Attention(
          (qkv): Linear_BN(
            (c): Linear(in_features=384, out_features=768, bias=False)
            (bn): BatchNorm1d(768, eps=1e-05, momentum=0.1, affine=True, track_running_stats=True)
          )
          (proj): Sequential(
            (0): Hardswish()
            (1): Linear_BN(
              (c): Linear(in_features=384, out_features=384, bias=False)
              (bn): BatchNorm1d(384, eps=1e-05, momentum=0.1, affine=True, track_running_stats=True)
            )
          )
        )
      )
      (1): Residual(
        (m): Sequential(
          (0): Linear_BN(
            (c): Linear(in_features=384, out_features=768, bias=False)
            (bn): BatchNorm1d(768, eps=1e-05, momentum=0.1, affine=True, track_running_stats=True)
          )
          (1): Hardswish()
          (2): Linear_BN(
            (c): Linear(in_features=768, out_features=384, bias=False)
            (bn): BatchNorm1d(384, eps=1e-05, momentum=0.1, affine=True, track_running_stats=True)
          )
        )
      )
      (2): Residual(
        (m): Attention(
          (qkv): Linear_BN(
            (c): Linear(in_features=384, out_features=768, bias=False)
            (bn): BatchNorm1d(768, eps=1e-05, momentum=0.1, affine=True, track_running_stats=True)
          )
          (proj): Sequential(
            (0): Hardswish()
            (1): Linear_BN(
              (c): Linear(in_features=384, out_features=384, bias=False)
              (bn): BatchNorm1d(384, eps=1e-05, momentum=0.1, affine=True, track_running_stats=True)
            )
          )
        )
      )
      (3): Residual(
        (m): Sequential(
          (0): Linear_BN(
            (c): Linear(in_features=384, out_features=768, bias=False)
            (bn): BatchNorm1d(768, eps=1e-05, momentum=0.1, affine=True, track_running_stats=True)
          )
          (1): Hardswish()
          (2): Linear_BN(
            (c): Linear(in_features=768, out_features=384, bias=False)
            (bn): BatchNorm1d(384, eps=1e-05, momentum=0.1, affine=True, track_running_stats=True)
          )
        )
      )
      (4): Residual(
        (m): Attention(
          (qkv): Linear_BN(
            (c): Linear(in_features=384, out_features=768, bias=False)
            (bn): BatchNorm1d(768, eps=1e-05, momentum=0.1, affine=True, track_running_stats=True)
          )
          (proj): Sequential(
            (0): Hardswish()
            (1): Linear_BN(
              (c): Linear(in_features=384, out_features=384, bias=False)
              (bn): BatchNorm1d(384, eps=1e-05, momentum=0.1, affine=True, track_running_stats=True)
            )
          )
        )
      )
      (5): Residual(
        (m): Sequential(
          (0): Linear_BN(
            (c): Linear(in_features=384, out_features=768, bias=False)
            (bn): BatchNorm1d(768, eps=1e-05, momentum=0.1, affine=True, track_running_stats=True)
          )
          (1): Hardswish()
          (2): Linear_BN(
            (c): Linear(in_features=768, out_features=384, bias=False)
            (bn): BatchNorm1d(384, eps=1e-05, momentum=0.1, affine=True, track_running_stats=True)
          )
        )
      )
      (6): Residual(
        (m): Attention(
          (qkv): Linear_BN(
            (c): Linear(in_features=384, out_features=768, bias=False)
            (bn): BatchNorm1d(768, eps=1e-05, momentum=0.1, affine=True, track_running_stats=True)
          )
          (proj): Sequential(
            (0): Hardswish()
            (1): Linear_BN(
              (c): Linear(in_features=384, out_features=384, bias=False)
              (bn): BatchNorm1d(384, eps=1e-05, momentum=0.1, affine=True, track_running_stats=True)
            )
          )
        )
      )
      (7): Residual(
        (m): Sequential(
          (0): Linear_BN(
            (c): Linear(in_features=384, out_features=768, bias=False)
            (bn): BatchNorm1d(768, eps=1e-05, momentum=0.1, affine=True, track_running_stats=True)
          )
          (1): Hardswish()
          (2): Linear_BN(
            (c): Linear(in_features=768, out_features=384, bias=False)
            (bn): BatchNorm1d(384, eps=1e-05, momentum=0.1, affine=True, track_running_stats=True)
          )
        )
      )
    )
    (block_2): Sequential(
      (8): AttentionSubsample(
        (kv): Linear_BN(
          (c): Linear(in_features=384, out_features=1920, bias=False)
          (bn): BatchNorm1d(1920, eps=1e-05, momentum=0.1, affine=True, track_running_stats=True)
        )
        (q): Sequential(
          (0): Subsample()
          (1): Linear_BN(
            (c): Linear(in_features=384, out_features=384, bias=False)
            (bn): BatchNorm1d(384, eps=1e-05, momentum=0.1, affine=True, track_running_stats=True)
          )
        )
        (proj): Sequential(
          (0): Hardswish()
          (1): Linear_BN(
            (c): Linear(in_features=1536, out_features=512, bias=False)
            (bn): BatchNorm1d(512, eps=1e-05, momentum=0.1, affine=True, track_running_stats=True)
          )
        )
      )
      (9): Residual(
        (m): Sequential(
          (0): Linear_BN(
            (c): Linear(in_features=512, out_features=1024, bias=False)
            (bn): BatchNorm1d(1024, eps=1e-05, momentum=0.1, affine=True, track_running_stats=True)
          )
          (1): Hardswish()
          (2): Linear_BN(
            (c): Linear(in_features=1024, out_features=512, bias=False)
            (bn): BatchNorm1d(512, eps=1e-05, momentum=0.1, affine=True, track_running_stats=True)
          )
        )
      )
      (10): Residual(
        (m): Attention(
          (qkv): Linear_BN(
            (c): Linear(in_features=512, out_features=1152, bias=False)
            (bn): BatchNorm1d(1152, eps=1e-05, momentum=0.1, affine=True, track_running_stats=True)
          )
          (proj): Sequential(
            (0): Hardswish()
            (1): Linear_BN(
              (c): Linear(in_features=576, out_features=512, bias=False)
              (bn): BatchNorm1d(512, eps=1e-05, momentum=0.1, affine=True, track_running_stats=True)
            )
          )
        )
      )
      (11): Residual(
        (m): Sequential(
          (0): Linear_BN(
            (c): Linear(in_features=512, out_features=1024, bias=False)
            (bn): BatchNorm1d(1024, eps=1e-05, momentum=0.1, affine=True, track_running_stats=True)
          )
          (1): Hardswish()
          (2): Linear_BN(
            (c): Linear(in_features=1024, out_features=512, bias=False)
            (bn): BatchNorm1d(512, eps=1e-05, momentum=0.1, affine=True, track_running_stats=True)
          )
        )
      )
      (12): Residual(
        (m): Attention(
          (qkv): Linear_BN(
            (c): Linear(in_features=512, out_features=1152, bias=False)
            (bn): BatchNorm1d(1152, eps=1e-05, momentum=0.1, affine=True, track_running_stats=True)
          )
          (proj): Sequential(
            (0): Hardswish()
            (1): Linear_BN(
              (c): Linear(in_features=576, out_features=512, bias=False)
              (bn): BatchNorm1d(512, eps=1e-05, momentum=0.1, affine=True, track_running_stats=True)
            )
          )
        )
      )
      (13): Residual(
        (m): Sequential(
          (0): Linear_BN(
            (c): Linear(in_features=512, out_features=1024, bias=False)
            (bn): BatchNorm1d(1024, eps=1e-05, momentum=0.1, affine=True, track_running_stats=True)
          )
          (1): Hardswish()
          (2): Linear_BN(
            (c): Linear(in_features=1024, out_features=512, bias=False)
            (bn): BatchNorm1d(512, eps=1e-05, momentum=0.1, affine=True, track_running_stats=True)
          )
        )
      )
      (14): Residual(
        (m): Attention(
          (qkv): Linear_BN(
            (c): Linear(in_features=512, out_features=1152, bias=False)
            (bn): BatchNorm1d(1152, eps=1e-05, momentum=0.1, affine=True, track_running_stats=True)
          )
          (proj): Sequential(
            (0): Hardswish()
            (1): Linear_BN(
              (c): Linear(in_features=576, out_features=512, bias=False)
              (bn): BatchNorm1d(512, eps=1e-05, momentum=0.1, affine=True, track_running_stats=True)
            )
          )
        )
      )
      (15): Residual(
        (m): Sequential(
          (0): Linear_BN(
            (c): Linear(in_features=512, out_features=1024, bias=False)
            (bn): BatchNorm1d(1024, eps=1e-05, momentum=0.1, affine=True, track_running_stats=True)
          )
          (1): Hardswish()
          (2): Linear_BN(
            (c): Linear(in_features=1024, out_features=512, bias=False)
            (bn): BatchNorm1d(512, eps=1e-05, momentum=0.1, affine=True, track_running_stats=True)
          )
        )
      )
      (16): Residual(
        (m): Attention(
          (qkv): Linear_BN(
            (c): Linear(in_features=512, out_features=1152, bias=False)
            (bn): BatchNorm1d(1152, eps=1e-05, momentum=0.1, affine=True, track_running_stats=True)
          )
          (proj): Sequential(
            (0): Hardswish()
            (1): Linear_BN(
              (c): Linear(in_features=576, out_features=512, bias=False)
              (bn): BatchNorm1d(512, eps=1e-05, momentum=0.1, affine=True, track_running_stats=True)
            )
          )
        )
      )
      (17): Residual(
        (m): Sequential(
          (0): Linear_BN(
            (c): Linear(in_features=512, out_features=1024, bias=False)
            (bn): BatchNorm1d(1024, eps=1e-05, momentum=0.1, affine=True, track_running_stats=True)
          )
          (1): Hardswish()
          (2): Linear_BN(
            (c): Linear(in_features=1024, out_features=512, bias=False)
            (bn): BatchNorm1d(512, eps=1e-05, momentum=0.1, affine=True, track_running_stats=True)
          )
        )
      )
    )
    (block_3): Sequential(
      (18): AttentionSubsample(
        (kv): Linear_BN(
          (c): Linear(in_features=512, out_features=2560, bias=False)
          (bn): BatchNorm1d(2560, eps=1e-05, momentum=0.1, affine=True, track_running_stats=True)
        )
        (q): Sequential(
          (0): Subsample()
          (1): Linear_BN(
            (c): Linear(in_features=512, out_features=512, bias=False)
            (bn): BatchNorm1d(512, eps=1e-05, momentum=0.1, affine=True, track_running_stats=True)
          )
        )
        (proj): Sequential(
          (0): Hardswish()
          (1): Linear_BN(
            (c): Linear(in_features=2048, out_features=768, bias=False)
            (bn): BatchNorm1d(768, eps=1e-05, momentum=0.1, affine=True, track_running_stats=True)
          )
        )
      )
      (19): Residual(
        (m): Sequential(
          (0): Linear_BN(
            (c): Linear(in_features=768, out_features=1536, bias=False)
            (bn): BatchNorm1d(1536, eps=1e-05, momentum=0.1, affine=True, track_running_stats=True)
          )
          (1): Hardswish()
          (2): Linear_BN(
            (c): Linear(in_features=1536, out_features=768, bias=False)
            (bn): BatchNorm1d(768, eps=1e-05, momentum=0.1, affine=True, track_running_stats=True)
          )
        )
      )
      (20): Residual(
        (m): Attention(
          (qkv): Linear_BN(
            (c): Linear(in_features=768, out_features=1536, bias=False)
            (bn): BatchNorm1d(1536, eps=1e-05, momentum=0.1, affine=True, track_running_stats=True)
          )
          (proj): Sequential(
            (0): Hardswish()
            (1): Linear_BN(
              (c): Linear(in_features=768, out_features=768, bias=False)
              (bn): BatchNorm1d(768, eps=1e-05, momentum=0.1, affine=True, track_running_stats=True)
            )
          )
        )
      )
      (21): Residual(
        (m): Sequential(
          (0): Linear_BN(
            (c): Linear(in_features=768, out_features=1536, bias=False)
            (bn): BatchNorm1d(1536, eps=1e-05, momentum=0.1, affine=True, track_running_stats=True)
          )
          (1): Hardswish()
          (2): Linear_BN(
            (c): Linear(in_features=1536, out_features=768, bias=False)
            (bn): BatchNorm1d(768, eps=1e-05, momentum=0.1, affine=True, track_running_stats=True)
          )
        )
      )
      (22): Residual(
        (m): Attention(
          (qkv): Linear_BN(
            (c): Linear(in_features=768, out_features=1536, bias=False)
            (bn): BatchNorm1d(1536, eps=1e-05, momentum=0.1, affine=True, track_running_stats=True)
          )
          (proj): Sequential(
            (0): Hardswish()
            (1): Linear_BN(
              (c): Linear(in_features=768, out_features=768, bias=False)
              (bn): BatchNorm1d(768, eps=1e-05, momentum=0.1, affine=True, track_running_stats=True)
            )
          )
        )
      )
      (23): Residual(
        (m): Sequential(
          (0): Linear_BN(
            (c): Linear(in_features=768, out_features=1536, bias=False)
            (bn): BatchNorm1d(1536, eps=1e-05, momentum=0.1, affine=True, track_running_stats=True)
          )
          (1): Hardswish()
          (2): Linear_BN(
            (c): Linear(in_features=1536, out_features=768, bias=False)
            (bn): BatchNorm1d(768, eps=1e-05, momentum=0.1, affine=True, track_running_stats=True)
          )
        )
      )
      (24): Residual(
        (m): Attention(
          (qkv): Linear_BN(
            (c): Linear(in_features=768, out_features=1536, bias=False)
            (bn): BatchNorm1d(1536, eps=1e-05, momentum=0.1, affine=True, track_running_stats=True)
          )
          (proj): Sequential(
            (0): Hardswish()
            (1): Linear_BN(
              (c): Linear(in_features=768, out_features=768, bias=False)
              (bn): BatchNorm1d(768, eps=1e-05, momentum=0.1, affine=True, track_running_stats=True)
            )
          )
        )
      )
      (25): Residual(
        (m): Sequential(
          (0): Linear_BN(
            (c): Linear(in_features=768, out_features=1536, bias=False)
            (bn): BatchNorm1d(1536, eps=1e-05, momentum=0.1, affine=True, track_running_stats=True)
          )
          (1): Hardswish()
          (2): Linear_BN(
            (c): Linear(in_features=1536, out_features=768, bias=False)
            (bn): BatchNorm1d(768, eps=1e-05, momentum=0.1, affine=True, track_running_stats=True)
          )
        )
      )
      (26): Residual(
        (m): Attention(
          (qkv): Linear_BN(
            (c): Linear(in_features=768, out_features=1536, bias=False)
            (bn): BatchNorm1d(1536, eps=1e-05, momentum=0.1, affine=True, track_running_stats=True)
          )
          (proj): Sequential(
            (0): Hardswish()
            (1): Linear_BN(
              (c): Linear(in_features=768, out_features=768, bias=False)
              (bn): BatchNorm1d(768, eps=1e-05, momentum=0.1, affine=True, track_running_stats=True)
            )
          )
        )
      )
      (27): Residual(
        (m): Sequential(
          (0): Linear_BN(
            (c): Linear(in_features=768, out_features=1536, bias=False)
            (bn): BatchNorm1d(1536, eps=1e-05, momentum=0.1, affine=True, track_running_stats=True)
          )
          (1): Hardswish()
          (2): Linear_BN(
            (c): Linear(in_features=1536, out_features=768, bias=False)
            (bn): BatchNorm1d(768, eps=1e-05, momentum=0.1, affine=True, track_running_stats=True)
          )
        )
      )
    )
    (up): UpsamplingBilinear2d(scale_factor=2.0, mode=bilinear)
  )
  init_cfg={'type': 'Normal', 'std': 0.01, 'override': {'name': 'conv_seg'}}
)
2023-11-26 21:41:47,810 - mmseg - INFO - Loaded 474 images
2023-11-26 21:41:55,097 - mmseg - INFO - Loaded 105 images
2023-11-26 21:41:55,097 - mmseg - INFO - Start running, host: featurize@featurize, work_dir: /home/featurize/work/test/work_dirs/levitunet
…
