…
The value is the same before and after calling `init_weights` of EncoderDecoderFull  

decode_head.decoder.conv1.weight - torch.Size([4, 16, 1, 1]): 
The value is the same before and after calling `init_weights` of EncoderDecoderFull  

decode_head.decoder.conv1.bias - torch.Size([4]): 
The value is the same before and after calling `init_weights` of EncoderDecoderFull  
2023-11-25 17:59:58,053 - mmseg - INFO - EncoderDecoderFull(
  (decode_head): TransUNet(
    input_transform=None, ignore_index=255, align_corners=False
    (loss_decode): ModuleList(
      (0): FocalLoss()
      (1): DiceLoss()
    )
    (conv_seg): Conv2d(64, 2, kernel_size=(1, 1), stride=(1, 1))
    (dropout): Dropout2d(p=0.1, inplace=False)
    (encoder): Encoder(
      (conv1): Conv2d(3, 128, kernel_size=(7, 7), stride=(2, 2), padding=(3, 3), bias=False)
      (norm1): BatchNorm2d(128, eps=1e-05, momentum=0.1, affine=True, track_running_stats=True)
      (relu): ReLU(inplace=True)
      (encoder1): EncoderBottleneck(
        (downsample): Sequential(
          (0): Conv2d(128, 256, kernel_size=(1, 1), stride=(2, 2), bias=False)
          (1): BatchNorm2d(256, eps=1e-05, momentum=0.1, affine=True, track_running_stats=True)
        )
        (conv1): Conv2d(128, 256, kernel_size=(1, 1), stride=(1, 1), bias=False)
        (norm1): BatchNorm2d(256, eps=1e-05, momentum=0.1, affine=True, track_running_stats=True)
        (conv2): Conv2d(256, 256, kernel_size=(3, 3), stride=(2, 2), padding=(1, 1), bias=False)
        (norm2): BatchNorm2d(256, eps=1e-05, momentum=0.1, affine=True, track_running_stats=True)
        (conv3): Conv2d(256, 256, kernel_size=(1, 1), stride=(1, 1), bias=False)
        (norm3): BatchNorm2d(256, eps=1e-05, momentum=0.1, affine=True, track_running_stats=True)
        (relu): ReLU(inplace=True)
      )
      (encoder2): EncoderBottleneck(
        (downsample): Sequential(
          (0): Conv2d(256, 512, kernel_size=(1, 1), stride=(2, 2), bias=False)
          (1): BatchNorm2d(512, eps=1e-05, momentum=0.1, affine=True, track_running_stats=True)
        )
        (conv1): Conv2d(256, 512, kernel_size=(1, 1), stride=(1, 1), bias=False)
        (norm1): BatchNorm2d(512, eps=1e-05, momentum=0.1, affine=True, track_running_stats=True)
        (conv2): Conv2d(512, 512, kernel_size=(3, 3), stride=(2, 2), padding=(1, 1), bias=False)
        (norm2): BatchNorm2d(512, eps=1e-05, momentum=0.1, affine=True, track_running_stats=True)
        (conv3): Conv2d(512, 512, kernel_size=(1, 1), stride=(1, 1), bias=False)
        (norm3): BatchNorm2d(512, eps=1e-05, momentum=0.1, affine=True, track_running_stats=True)
        (relu): ReLU(inplace=True)
      )
      (encoder3): EncoderBottleneck(
        (downsample): Sequential(
          (0): Conv2d(512, 1024, kernel_size=(1, 1), stride=(2, 2), bias=False)
          (1): BatchNorm2d(1024, eps=1e-05, momentum=0.1, affine=True, track_running_stats=True)
        )
        (conv1): Conv2d(512, 1024, kernel_size=(1, 1), stride=(1, 1), bias=False)
        (norm1): BatchNorm2d(1024, eps=1e-05, momentum=0.1, affine=True, track_running_stats=True)
        (conv2): Conv2d(1024, 1024, kernel_size=(3, 3), stride=(2, 2), padding=(1, 1), bias=False)
        (norm2): BatchNorm2d(1024, eps=1e-05, momentum=0.1, affine=True, track_running_stats=True)
        (conv3): Conv2d(1024, 1024, kernel_size=(1, 1), stride=(1, 1), bias=False)
        (norm3): BatchNorm2d(1024, eps=1e-05, momentum=0.1, affine=True, track_running_stats=True)
        (relu): ReLU(inplace=True)
      )
      (vit): ViT(
        (projection): Linear(in_features=1024, out_features=1024, bias=True)
        (dropout): Dropout(p=0.1, inplace=False)
        (transformer): TransformerEncoder(
          (layer_blocks): ModuleList(
            (0): TransformerEncoderBlock(
              (multi_head_attention): MultiHeadAttention(
                (qkv_layer): Linear(in_features=1024, out_features=3072, bias=False)
                (out_attention): Linear(in_features=1024, out_features=1024, bias=False)
              )
              (mlp): MLP(
                (mlp_layers): Sequential(
                  (0): Linear(in_features=1024, out_features=512, bias=True)
                  (1): GELU()
                  (2): Dropout(p=0.1, inplace=False)
                  (3): Linear(in_features=512, out_features=1024, bias=True)
                  (4): Dropout(p=0.1, inplace=False)
                )
              )
              (layer_norm1): LayerNorm((1024,), eps=1e-05, elementwise_affine=True)
              (layer_norm2): LayerNorm((1024,), eps=1e-05, elementwise_affine=True)
              (dropout): Dropout(p=0.1, inplace=False)
            )
            (1): TransformerEncoderBlock(
              (multi_head_attention): MultiHeadAttention(
                (qkv_layer): Linear(in_features=1024, out_features=3072, bias=False)
                (out_attention): Linear(in_features=1024, out_features=1024, bias=False)
              )
              (mlp): MLP(
                (mlp_layers): Sequential(
                  (0): Linear(in_features=1024, out_features=512, bias=True)
                  (1): GELU()
                  (2): Dropout(p=0.1, inplace=False)
                  (3): Linear(in_features=512, out_features=1024, bias=True)
                  (4): Dropout(p=0.1, inplace=False)
                )
              )
              (layer_norm1): LayerNorm((1024,), eps=1e-05, elementwise_affine=True)
              (layer_norm2): LayerNorm((1024,), eps=1e-05, elementwise_affine=True)
              (dropout): Dropout(p=0.1, inplace=False)
            )
            (2): TransformerEncoderBlock(
              (multi_head_attention): MultiHeadAttention(
                (qkv_layer): Linear(in_features=1024, out_features=3072, bias=False)
                (out_attention): Linear(in_features=1024, out_features=1024, bias=False)
              )
              (mlp): MLP(
                (mlp_layers): Sequential(
                  (0): Linear(in_features=1024, out_features=512, bias=True)
                  (1): GELU()
                  (2): Dropout(p=0.1, inplace=False)
                  (3): Linear(in_features=512, out_features=1024, bias=True)
                  (4): Dropout(p=0.1, inplace=False)
                )
              )
              (layer_norm1): LayerNorm((1024,), eps=1e-05, elementwise_affine=True)
              (layer_norm2): LayerNorm((1024,), eps=1e-05, elementwise_affine=True)
              (dropout): Dropout(p=0.1, inplace=False)
            )
            (3): TransformerEncoderBlock(
              (multi_head_attention): MultiHeadAttention(
                (qkv_layer): Linear(in_features=1024, out_features=3072, bias=False)
                (out_attention): Linear(in_features=1024, out_features=1024, bias=False)
              )
              (mlp): MLP(
                (mlp_layers): Sequential(
                  (0): Linear(in_features=1024, out_features=512, bias=True)
                  (1): GELU()
                  (2): Dropout(p=0.1, inplace=False)
                  (3): Linear(in_features=512, out_features=1024, bias=True)
                  (4): Dropout(p=0.1, inplace=False)
                )
              )
              (layer_norm1): LayerNorm((1024,), eps=1e-05, elementwise_affine=True)
              (layer_norm2): LayerNorm((1024,), eps=1e-05, elementwise_affine=True)
              (dropout): Dropout(p=0.1, inplace=False)
            )
            (4): TransformerEncoderBlock(
              (multi_head_attention): MultiHeadAttention(
                (qkv_layer): Linear(in_features=1024, out_features=3072, bias=False)
                (out_attention): Linear(in_features=1024, out_features=1024, bias=False)
              )
              (mlp): MLP(
                (mlp_layers): Sequential(
                  (0): Linear(in_features=1024, out_features=512, bias=True)
                  (1): GELU()
                  (2): Dropout(p=0.1, inplace=False)
                  (3): Linear(in_features=512, out_features=1024, bias=True)
                  (4): Dropout(p=0.1, inplace=False)
                )
              )
              (layer_norm1): LayerNorm((1024,), eps=1e-05, elementwise_affine=True)
              (layer_norm2): LayerNorm((1024,), eps=1e-05, elementwise_affine=True)
              (dropout): Dropout(p=0.1, inplace=False)
            )
            (5): TransformerEncoderBlock(
              (multi_head_attention): MultiHeadAttention(
                (qkv_layer): Linear(in_features=1024, out_features=3072, bias=False)
                (out_attention): Linear(in_features=1024, out_features=1024, bias=False)
              )
              (mlp): MLP(
                (mlp_layers): Sequential(
                  (0): Linear(in_features=1024, out_features=512, bias=True)
                  (1): GELU()
                  (2): Dropout(p=0.1, inplace=False)
                  (3): Linear(in_features=512, out_features=1024, bias=True)
                  (4): Dropout(p=0.1, inplace=False)
                )
              )
              (layer_norm1): LayerNorm((1024,), eps=1e-05, elementwise_affine=True)
              (layer_norm2): LayerNorm((1024,), eps=1e-05, elementwise_affine=True)
              (dropout): Dropout(p=0.1, inplace=False)
            )
            (6): TransformerEncoderBlock(
              (multi_head_attention): MultiHeadAttention(
                (qkv_layer): Linear(in_features=1024, out_features=3072, bias=False)
                (out_attention): Linear(in_features=1024, out_features=1024, bias=False)
              )
              (mlp): MLP(
                (mlp_layers): Sequential(
                  (0): Linear(in_features=1024, out_features=512, bias=True)
                  (1): GELU()
                  (2): Dropout(p=0.1, inplace=False)
                  (3): Linear(in_features=512, out_features=1024, bias=True)
                  (4): Dropout(p=0.1, inplace=False)
                )
              )
              (layer_norm1): LayerNorm((1024,), eps=1e-05, elementwise_affine=True)
              (layer_norm2): LayerNorm((1024,), eps=1e-05, elementwise_affine=True)
              (dropout): Dropout(p=0.1, inplace=False)
            )
            (7): TransformerEncoderBlock(
              (multi_head_attention): MultiHeadAttention(
                (qkv_layer): Linear(in_features=1024, out_features=3072, bias=False)
                (out_attention): Linear(in_features=1024, out_features=1024, bias=False)
              )
              (mlp): MLP(
                (mlp_layers): Sequential(
                  (0): Linear(in_features=1024, out_features=512, bias=True)
                  (1): GELU()
                  (2): Dropout(p=0.1, inplace=False)
                  (3): Linear(in_features=512, out_features=1024, bias=True)
                  (4): Dropout(p=0.1, inplace=False)
                )
              )
              (layer_norm1): LayerNorm((1024,), eps=1e-05, elementwise_affine=True)
              (layer_norm2): LayerNorm((1024,), eps=1e-05, elementwise_affine=True)
              (dropout): Dropout(p=0.1, inplace=False)
            )
          )
        )
      )
      (conv2): Conv2d(1024, 512, kernel_size=(3, 3), stride=(1, 1), padding=(1, 1))
      (norm2): BatchNorm2d(512, eps=1e-05, momentum=0.1, affine=True, track_running_stats=True)
    )
    (decoder): Decoder(
      (decoder1): DecoderBottleneck(
        (upsample): Upsample(scale_factor=2.0, mode=bilinear)
        (layer): Sequential(
          (0): Conv2d(1024, 256, kernel_size=(3, 3), stride=(1, 1), padding=(1, 1))
          (1): BatchNorm2d(256, eps=1e-05, momentum=0.1, affine=True, track_running_stats=True)
          (2): ReLU(inplace=True)
          (3): Conv2d(256, 256, kernel_size=(3, 3), stride=(1, 1), padding=(1, 1))
          (4): BatchNorm2d(256, eps=1e-05, momentum=0.1, affine=True, track_running_stats=True)
          (5): ReLU(inplace=True)
        )
      )
      (decoder2): DecoderBottleneck(
        (upsample): Upsample(scale_factor=2.0, mode=bilinear)
        (layer): Sequential(
          (0): Conv2d(512, 128, kernel_size=(3, 3), stride=(1, 1), padding=(1, 1))
          (1): BatchNorm2d(128, eps=1e-05, momentum=0.1, affine=True, track_running_stats=True)
          (2): ReLU(inplace=True)
          (3): Conv2d(128, 128, kernel_size=(3, 3), stride=(1, 1), padding=(1, 1))
          (4): BatchNorm2d(128, eps=1e-05, momentum=0.1, affine=True, track_running_stats=True)
          (5): ReLU(inplace=True)
        )
      )
      (decoder3): DecoderBottleneck(
        (upsample): Upsample(scale_factor=2.0, mode=bilinear)
        (layer): Sequential(
          (0): Conv2d(256, 64, kernel_size=(3, 3), stride=(1, 1), padding=(1, 1))
          (1): BatchNorm2d(64, eps=1e-05, momentum=0.1, affine=True, track_running_stats=True)
          (2): ReLU(inplace=True)
          (3): Conv2d(64, 64, kernel_size=(3, 3), stride=(1, 1), padding=(1, 1))
          (4): BatchNorm2d(64, eps=1e-05, momentum=0.1, affine=True, track_running_stats=True)
          (5): ReLU(inplace=True)
        )
      )
      (decoder4): DecoderBottleneck(
        (upsample): Upsample(scale_factor=2.0, mode=bilinear)
        (layer): Sequential(
          (0): Conv2d(64, 16, kernel_size=(3, 3), stride=(1, 1), padding=(1, 1))
          (1): BatchNorm2d(16, eps=1e-05, momentum=0.1, affine=True, track_running_stats=True)
          (2): ReLU(inplace=True)
          (3): Conv2d(16, 16, kernel_size=(3, 3), stride=(1, 1), padding=(1, 1))
          (4): BatchNorm2d(16, eps=1e-05, momentum=0.1, affine=True, track_running_stats=True)
          (5): ReLU(inplace=True)
        )
      )
      (conv1): Conv2d(16, 4, kernel_size=(1, 1), stride=(1, 1))
    )
  )
  init_cfg={'type': 'Normal', 'std': 0.01, 'override': {'name': 'conv_seg'}}
)
2023-11-25 17:59:58,520 - mmseg - INFO - Loaded 474 images
2023-11-25 18:00:39,617 - mmseg - INFO - Loaded 105 images
2023-11-25 18:00:39,618 - mmseg - INFO - Start running, host: featurize@featurize, work_dir: /home/featurize/work/test/work_dirs/transunet
2023-11-25 18:00:39,619 - mmseg - INFO - Hooks will be executed in the following order:
…
