…
The value is the same before and after calling `init_weights` of EncoderDecoder  

decode_head.up4.conv.conv.3.bias - torch.Size([64]): 
The value is the same before and after calling `init_weights` of EncoderDecoder  

decode_head.up4.conv.conv.4.weight - torch.Size([64]): 
The value is the same before and after calling `init_weights` of EncoderDecoder  

decode_head.up4.conv.conv.4.bias - torch.Size([64]): 
The value is the same before and after calling `init_weights` of EncoderDecoder  
2023-11-24 22:33:28,235 - mmseg - INFO - EncoderDecoder(
  (backbone): UnetBackbone(
    (inc): MACInConv(
      (conv): MAC(
        (shortCut): Conv2d(3, 64, kernel_size=(1, 1), stride=(1, 1))
        (conv1_1): Sequential(
          (0): Conv2d(3, 64, kernel_size=(1, 3), stride=(1, 1), padding=same)
          (1): BatchNorm2d(64, eps=1e-05, momentum=0.1, affine=True, track_running_stats=True)
          (2): ReLU(inplace=True)
        )
        (conv1_2): Sequential(
          (0): Conv2d(64, 64, kernel_size=(3, 1), stride=(1, 1), padding=same)
          (1): BatchNorm2d(64, eps=1e-05, momentum=0.1, affine=True, track_running_stats=True)
          (2): ReLU(inplace=True)
        )
        (conv2_1): Sequential(
          (0): Conv2d(3, 64, kernel_size=(1, 3), stride=(1, 1), padding=same, dilation=(1, 2))
          (1): BatchNorm2d(64, eps=1e-05, momentum=0.1, affine=True, track_running_stats=True)
          (2): ReLU(inplace=True)
        )
        (conv2_2): Sequential(
          (0): Conv2d(64, 64, kernel_size=(3, 1), stride=(1, 1), padding=same, dilation=(2, 1))
          (1): BatchNorm2d(64, eps=1e-05, momentum=0.1, affine=True, track_running_stats=True)
          (2): ReLU(inplace=True)
        )
        (conv3_1): Sequential(
          (0): Conv2d(3, 64, kernel_size=(1, 3), stride=(1, 1), padding=same, dilation=(1, 3))
          (1): BatchNorm2d(64, eps=1e-05, momentum=0.1, affine=True, track_running_stats=True)
          (2): ReLU(inplace=True)
        )
        (conv3_2): Sequential(
          (0): Conv2d(64, 64, kernel_size=(3, 1), stride=(1, 1), padding=same, dilation=(3, 1))
          (1): BatchNorm2d(64, eps=1e-05, momentum=0.1, affine=True, track_running_stats=True)
          (2): ReLU(inplace=True)
        )
      )
    )
    (down1): Conv_Down(
      (down_conv): Sequential(
        (0): Conv2d(64, 64, kernel_size=(2, 2), stride=(2, 2))
        (1): MAC(
          (shortCut): Conv2d(64, 128, kernel_size=(1, 1), stride=(1, 1))
          (conv1_1): Sequential(
            (0): Conv2d(64, 128, kernel_size=(1, 3), stride=(1, 1), padding=same)
            (1): BatchNorm2d(128, eps=1e-05, momentum=0.1, affine=True, track_running_stats=True)
            (2): ReLU(inplace=True)
          )
          (conv1_2): Sequential(
            (0): Conv2d(128, 128, kernel_size=(3, 1), stride=(1, 1), padding=same)
            (1): BatchNorm2d(128, eps=1e-05, momentum=0.1, affine=True, track_running_stats=True)
            (2): ReLU(inplace=True)
          )
          (conv2_1): Sequential(
            (0): Conv2d(64, 128, kernel_size=(1, 3), stride=(1, 1), padding=same, dilation=(1, 2))
            (1): BatchNorm2d(128, eps=1e-05, momentum=0.1, affine=True, track_running_stats=True)
            (2): ReLU(inplace=True)
          )
          (conv2_2): Sequential(
            (0): Conv2d(128, 128, kernel_size=(3, 1), stride=(1, 1), padding=same, dilation=(2, 1))
            (1): BatchNorm2d(128, eps=1e-05, momentum=0.1, affine=True, track_running_stats=True)
            (2): ReLU(inplace=True)
          )
          (conv3_1): Sequential(
            (0): Conv2d(64, 128, kernel_size=(1, 3), stride=(1, 1), padding=same, dilation=(1, 3))
            (1): BatchNorm2d(128, eps=1e-05, momentum=0.1, affine=True, track_running_stats=True)
            (2): ReLU(inplace=True)
          )
          (conv3_2): Sequential(
            (0): Conv2d(128, 128, kernel_size=(3, 1), stride=(1, 1), padding=same, dilation=(3, 1))
            (1): BatchNorm2d(128, eps=1e-05, momentum=0.1, affine=True, track_running_stats=True)
            (2): ReLU(inplace=True)
          )
        )
      )
    )
    (down2): Conv_Down(
      (down_conv): Sequential(
        (0): Conv2d(128, 128, kernel_size=(2, 2), stride=(2, 2))
        (1): MAC(
          (shortCut): Conv2d(128, 256, kernel_size=(1, 1), stride=(1, 1))
          (conv1_1): Sequential(
            (0): Conv2d(128, 256, kernel_size=(1, 3), stride=(1, 1), padding=same)
            (1): BatchNorm2d(256, eps=1e-05, momentum=0.1, affine=True, track_running_stats=True)
            (2): ReLU(inplace=True)
          )
          (conv1_2): Sequential(
            (0): Conv2d(256, 256, kernel_size=(3, 1), stride=(1, 1), padding=same)
            (1): BatchNorm2d(256, eps=1e-05, momentum=0.1, affine=True, track_running_stats=True)
            (2): ReLU(inplace=True)
          )
          (conv2_1): Sequential(
            (0): Conv2d(128, 256, kernel_size=(1, 3), stride=(1, 1), padding=same, dilation=(1, 2))
            (1): BatchNorm2d(256, eps=1e-05, momentum=0.1, affine=True, track_running_stats=True)
            (2): ReLU(inplace=True)
          )
          (conv2_2): Sequential(
            (0): Conv2d(256, 256, kernel_size=(3, 1), stride=(1, 1), padding=same, dilation=(2, 1))
            (1): BatchNorm2d(256, eps=1e-05, momentum=0.1, affine=True, track_running_stats=True)
            (2): ReLU(inplace=True)
          )
          (conv3_1): Sequential(
            (0): Conv2d(128, 256, kernel_size=(1, 3), stride=(1, 1), padding=same, dilation=(1, 3))
            (1): BatchNorm2d(256, eps=1e-05, momentum=0.1, affine=True, track_running_stats=True)
            (2): ReLU(inplace=True)
          )
          (conv3_2): Sequential(
            (0): Conv2d(256, 256, kernel_size=(3, 1), stride=(1, 1), padding=same, dilation=(3, 1))
            (1): BatchNorm2d(256, eps=1e-05, momentum=0.1, affine=True, track_running_stats=True)
            (2): ReLU(inplace=True)
          )
        )
      )
    )
    (down3): Conv_Down(
      (down_conv): Sequential(
        (0): Conv2d(256, 256, kernel_size=(2, 2), stride=(2, 2))
        (1): MAC(
          (shortCut): Conv2d(256, 512, kernel_size=(1, 1), stride=(1, 1))
          (conv1_1): Sequential(
            (0): Conv2d(256, 512, kernel_size=(1, 3), stride=(1, 1), padding=same)
            (1): BatchNorm2d(512, eps=1e-05, momentum=0.1, affine=True, track_running_stats=True)
            (2): ReLU(inplace=True)
          )
          (conv1_2): Sequential(
            (0): Conv2d(512, 512, kernel_size=(3, 1), stride=(1, 1), padding=same)
            (1): BatchNorm2d(512, eps=1e-05, momentum=0.1, affine=True, track_running_stats=True)
            (2): ReLU(inplace=True)
          )
          (conv2_1): Sequential(
            (0): Conv2d(256, 512, kernel_size=(1, 3), stride=(1, 1), padding=same, dilation=(1, 2))
            (1): BatchNorm2d(512, eps=1e-05, momentum=0.1, affine=True, track_running_stats=True)
            (2): ReLU(inplace=True)
          )
          (conv2_2): Sequential(
            (0): Conv2d(512, 512, kernel_size=(3, 1), stride=(1, 1), padding=same, dilation=(2, 1))
            (1): BatchNorm2d(512, eps=1e-05, momentum=0.1, affine=True, track_running_stats=True)
            (2): ReLU(inplace=True)
          )
          (conv3_1): Sequential(
            (0): Conv2d(256, 512, kernel_size=(1, 3), stride=(1, 1), padding=same, dilation=(1, 3))
            (1): BatchNorm2d(512, eps=1e-05, momentum=0.1, affine=True, track_running_stats=True)
            (2): ReLU(inplace=True)
          )
          (conv3_2): Sequential(
            (0): Conv2d(512, 512, kernel_size=(3, 1), stride=(1, 1), padding=same, dilation=(3, 1))
            (1): BatchNorm2d(512, eps=1e-05, momentum=0.1, affine=True, track_running_stats=True)
            (2): ReLU(inplace=True)
          )
        )
      )
    )
    (down4): Conv_Down(
      (down_conv): Sequential(
        (0): Conv2d(512, 512, kernel_size=(2, 2), stride=(2, 2))
        (1): MAC(
          (shortCut): Conv2d(512, 512, kernel_size=(1, 1), stride=(1, 1))
          (conv1_1): Sequential(
            (0): Conv2d(512, 512, kernel_size=(1, 3), stride=(1, 1), padding=same)
            (1): BatchNorm2d(512, eps=1e-05, momentum=0.1, affine=True, track_running_stats=True)
            (2): ReLU(inplace=True)
          )
          (conv1_2): Sequential(
            (0): Conv2d(512, 512, kernel_size=(3, 1), stride=(1, 1), padding=same)
            (1): BatchNorm2d(512, eps=1e-05, momentum=0.1, affine=True, track_running_stats=True)
            (2): ReLU(inplace=True)
          )
          (conv2_1): Sequential(
            (0): Conv2d(512, 512, kernel_size=(1, 3), stride=(1, 1), padding=same, dilation=(1, 2))
            (1): BatchNorm2d(512, eps=1e-05, momentum=0.1, affine=True, track_running_stats=True)
            (2): ReLU(inplace=True)
          )
          (conv2_2): Sequential(
            (0): Conv2d(512, 512, kernel_size=(3, 1), stride=(1, 1), padding=same, dilation=(2, 1))
            (1): BatchNorm2d(512, eps=1e-05, momentum=0.1, affine=True, track_running_stats=True)
            (2): ReLU(inplace=True)
          )
          (conv3_1): Sequential(
            (0): Conv2d(512, 512, kernel_size=(1, 3), stride=(1, 1), padding=same, dilation=(1, 3))
            (1): BatchNorm2d(512, eps=1e-05, momentum=0.1, affine=True, track_running_stats=True)
            (2): ReLU(inplace=True)
          )
          (conv3_2): Sequential(
            (0): Conv2d(512, 512, kernel_size=(3, 1), stride=(1, 1), padding=same, dilation=(3, 1))
            (1): BatchNorm2d(512, eps=1e-05, momentum=0.1, affine=True, track_running_stats=True)
            (2): ReLU(inplace=True)
          )
        )
      )
    )
  )
  (decode_head): UnetHead(
    input_transform=None, ignore_index=255, align_corners=False
    (loss_decode): ModuleList(
      (0): FocalLoss()
      (1): DiceLoss()
    )
    (conv_seg): Conv2d(64, 4, kernel_size=(1, 1), stride=(1, 1))
    (dropout): Dropout2d(p=0.1, inplace=False)
    (up1): Up(
      (up): ConvTranspose2d(512, 512, kernel_size=(2, 2), stride=(2, 2))
      (coord): CoordAtt(
        (pool_h): AdaptiveAvgPool2d(output_size=(None, 1))
        (pool_w): AdaptiveAvgPool2d(output_size=(1, None))
        (conv1): Conv2d(1024, 256, kernel_size=(1, 1), stride=(1, 1))
        (bn1): BatchNorm2d(256, eps=1e-05, momentum=0.1, affine=True, track_running_stats=True)
        (act): h_swish(
          (sigmoid): h_sigmoid(
            (relu): ReLU6(inplace=True)
          )
        )
        (conv_h): Conv2d(256, 1024, kernel_size=(1, 1), stride=(1, 1))
        (conv_w): Conv2d(256, 1024, kernel_size=(1, 1), stride=(1, 1))
      )
      (conv): DoubleConv(
        (conv): Sequential(
          (0): Conv2d(1024, 256, kernel_size=(3, 3), stride=(1, 1), padding=(1, 1))
          (1): BatchNorm2d(256, eps=1e-05, momentum=0.1, affine=True, track_running_stats=True)
          (2): ReLU(inplace=True)
          (3): Conv2d(256, 256, kernel_size=(3, 3), stride=(1, 1), padding=(1, 1))
          (4): BatchNorm2d(256, eps=1e-05, momentum=0.1, affine=True, track_running_stats=True)
          (5): ReLU(inplace=True)
        )
      )
    )
    (up2): Up(
      (up): ConvTranspose2d(256, 256, kernel_size=(2, 2), stride=(2, 2))
      (coord): CoordAtt(
        (pool_h): AdaptiveAvgPool2d(output_size=(None, 1))
        (pool_w): AdaptiveAvgPool2d(output_size=(1, None))
        (conv1): Conv2d(512, 128, kernel_size=(1, 1), stride=(1, 1))
        (bn1): BatchNorm2d(128, eps=1e-05, momentum=0.1, affine=True, track_running_stats=True)
        (act): h_swish(
          (sigmoid): h_sigmoid(
            (relu): ReLU6(inplace=True)
          )
        )
        (conv_h): Conv2d(128, 512, kernel_size=(1, 1), stride=(1, 1))
        (conv_w): Conv2d(128, 512, kernel_size=(1, 1), stride=(1, 1))
      )
      (conv): DoubleConv(
        (conv): Sequential(
          (0): Conv2d(512, 128, kernel_size=(3, 3), stride=(1, 1), padding=(1, 1))
          (1): BatchNorm2d(128, eps=1e-05, momentum=0.1, affine=True, track_running_stats=True)
          (2): ReLU(inplace=True)
          (3): Conv2d(128, 128, kernel_size=(3, 3), stride=(1, 1), padding=(1, 1))
          (4): BatchNorm2d(128, eps=1e-05, momentum=0.1, affine=True, track_running_stats=True)
          (5): ReLU(inplace=True)
        )
      )
    )
    (up3): Up(
      (up): ConvTranspose2d(128, 128, kernel_size=(2, 2), stride=(2, 2))
      (coord): CoordAtt(
        (pool_h): AdaptiveAvgPool2d(output_size=(None, 1))
        (pool_w): AdaptiveAvgPool2d(output_size=(1, None))
        (conv1): Conv2d(256, 64, kernel_size=(1, 1), stride=(1, 1))
        (bn1): BatchNorm2d(64, eps=1e-05, momentum=0.1, affine=True, track_running_stats=True)
        (act): h_swish(
          (sigmoid): h_sigmoid(
            (relu): ReLU6(inplace=True)
          )
        )
        (conv_h): Conv2d(64, 256, kernel_size=(1, 1), stride=(1, 1))
        (conv_w): Conv2d(64, 256, kernel_size=(1, 1), stride=(1, 1))
      )
      (conv): DoubleConv(
        (conv): Sequential(
          (0): Conv2d(256, 64, kernel_size=(3, 3), stride=(1, 1), padding=(1, 1))
          (1): BatchNorm2d(64, eps=1e-05, momentum=0.1, affine=True, track_running_stats=True)
          (2): ReLU(inplace=True)
          (3): Conv2d(64, 64, kernel_size=(3, 3), stride=(1, 1), padding=(1, 1))
          (4): BatchNorm2d(64, eps=1e-05, momentum=0.1, affine=True, track_running_stats=True)
          (5): ReLU(inplace=True)
        )
      )
    )
    (up4): Up(
      (up): Upsample(scale_factor=2.0, mode=bilinear)
      (coord): CoordAtt(
        (pool_h): AdaptiveAvgPool2d(output_size=(None, 1))
        (pool_w): AdaptiveAvgPool2d(output_size=(1, None))
        (conv1): Conv2d(128, 32, kernel_size=(1, 1), stride=(1, 1))
        (bn1): BatchNorm2d(32, eps=1e-05, momentum=0.1, affine=True, track_running_stats=True)
        (act): h_swish(
          (sigmoid): h_sigmoid(
            (relu): ReLU6(inplace=True)
          )
        )
        (conv_h): Conv2d(32, 128, kernel_size=(1, 1), stride=(1, 1))
        (conv_w): Conv2d(32, 128, kernel_size=(1, 1), stride=(1, 1))
      )
      (conv): DoubleConv(
        (conv): Sequential(
          (0): Conv2d(128, 64, kernel_size=(3, 3), stride=(1, 1), padding=(1, 1))
          (1): BatchNorm2d(64, eps=1e-05, momentum=0.1, affine=True, track_running_stats=True)
          (2): ReLU(inplace=True)
          (3): Conv2d(64, 64, kernel_size=(3, 3), stride=(1, 1), padding=(1, 1))
          (4): BatchNorm2d(64, eps=1e-05, momentum=0.1, affine=True, track_running_stats=True)
          (5): ReLU(inplace=True)
        )
      )
    )
  )
  init_cfg={'type': 'Normal', 'std': 0.01, 'override': {'name': 'conv_seg'}}
)
2023-11-24 22:33:28,247 - mmseg - INFO - Loaded 474 images
2023-11-24 22:33:34,550 - mmseg - INFO - Loaded 105 images
2023-11-24 22:33:34,550 - mmseg - INFO - Start running, host: featurize@featurize, work_dir: /home/featurize/work/test/work_dirs/unet_all
…
